model/keypoint_classifier/keypoint_classifier.tflite (tflite, 6616 bytes, 6 tensors)

arith.constant f4 [5, 10]
0	0xbed98576	-0.42484635
1	0xbee143c9	-0.43997028
2	0xbf3baaad	-0.73307306
3	0x3ea659c8	0.32490373
4	0xbdc79bda	-0.09746523
5	0x3f0e860d	0.55673295
6	0xbf2ab6ed	-0.6668537
7	0xbedadcbe	-0.42746538
8	0xbce2ce4e	-0.027686264
9	0x3ef6a3fe	0.4817199
10	0x3f43d66a	0.76499045
11	0xbf89b886	-1.0759437
12	0xbf207339	-0.62675816
13	0xbd603a59	-0.054743145
14	0xbece5257	-0.40297195
15	0xbf6fdc1a	-0.93695223
16	0xbe2af3a6	-0.16694507
17	0xbef840de	-0.4848699
18	0xbee44e9a	-0.44591218
19	0xbecc9b54	-0.39962256
20	0x3e905743	0.28191575
21	0x3ee6aa00	0.45051575
22	0xbed2e4e3	-0.41190252
23	0xbf78d4c5	-0.9719966
24	0x3e9f9a14	0.3117224
25	0xbed6b19f	-0.4193239
26	0x3eb916ed	0.36150303
27	0xbe909868	-0.28241277
28	0xbe498e69	-0.19683231
29	0xbed09bef	-0.40743968
30	0xbe9c400f	-0.30517623
31	0x3f065b6f	0.52483267
32	0x3f0f6d5a	0.5602623
33	0xbe663d10	-0.22484231
34	0x3dc7b966	0.09752159
35	0x3ec62e8c	0.38707387
36	0xbef2391c	-0.47309196
37	0x3e417557	0.18892418
38	0x3ef16ce7	0.47153398
39	0xbf29946e	-0.6624211
40	0xbf3773c4	-0.7166102
41	0x3e817589	0.25284985
42	0x3e9c365b	0.3051022
43	0xbefd7596	-0.49503773
44	0x3d282df1	0.04105944
45	0xbe837a5a	-0.25679284
46	0x3f04e310	0.5190897
47	0xbb8f139b	-0.004366351
48	0xbeacaa62	-0.33723742
49	0xbea7bc81	-0.32761005

arith.constant1 f4 [10, 20]
0	0x3e26c6bf	0.16286753
1	0x3ecf32c4	0.4046842
2	0xbbec112f	-0.007204197
3	0x3f59ad5e	0.8503016
4	0x3ec62e0c	0.38707006
5	0xbcb2d548	-0.021830216
6	0x3f2dc34a	0.6787611
7	0x3f340525	0.7032035
8	0x3f4ea8dd	0.80726415
9	0xbd163c7f	-0.036678787
10	0x3d71a9b4	0.058999732
11	0x3f0a40ce	0.54005134
12	0x3e312e0e	0.17302725
13	0x3f414491	0.7549525
14	0xbe8380af	-0.25684115
15	0x3f097c50	0.5370531
16	0xbee6ee00	-0.45103455
17	0xbf3dcbb4	-0.7413895
18	0x3f243926	0.641497
19	0xbf0b4a53	-0.54410285
20	0x3ec599b2	0.38593823
21	0xbe136d1a	-0.14397088
22	0x3ba2fd40	0.0049740374
23	0x3e39756a	0.18111196
24	0xbebdbb85	-0.3705713
25	0xbdb08f42	-0.08621074
26	0xbe30613e	-0.17224595
27	0xbe1703a1	-0.14747478
28	0xbe45fefe	-0.19335553
29	0x3eef18ac	0.4669851
30	0x3eec326d	0.46132222
31	0x3f0dc7d6	0.5538305
32	0x3f327147	0.697041
33	0x3de30394	0.11084667
34	0x3ddf153a	0.108927205
35	0xbe4c41d4	-0.19946986
36	0xbd120978	-0.03565356
37	0xbef55bc6	-0.4792158
38	0xbefc3f0b	-0.49266848
39	0xbf032e9f	-0.51243013
40	0x3ee4b46d	0.44668904
41	0xbe5e7630	-0.21724772
42	0x3e9ea79c	0.3098725
43	0xbec596cc	-0.3859161
44	0xbf07c5b5	-0.5303605
45	0x3ebcd12d	0.36878338
46	0xbf5191ef	-0.818633
47	0xbebc24f5	-0.36746946
48	0xbf1da383	-0.61577624
49	0xbdb32bd2	-0.087485924
50	0x3ecdf781	0.40227893
51	0x3e76c722	0.240994
52	0xbcfe8bff	-0.031072615
53	0xbe8ef9bb	-0.27924904
54	0x3b5538d9	0.0032535105
55	0xbe40ccc0	-0.18828106
56	0x3eb2b8b9	0.34906557
57	0xbf1bddc9	-0.6088529
58	0xbd77835d	-0.060428012
59	0xbf16d2f4	-0.5891564
60	0x3da2c6b0	0.07948053
61	0xbe18dc7f	-0.14927863
62	0x3e965757	0.2936351
63	0x3e99eba6	0.30062598
64	0x3ead05e2	0.3379355
65	0xbe00da23	-0.12583213
66	0x3e2299df	0.1587901
67	0x3f089224	0.5334799
68	0xbe93f6d6	-0.28899258
69	0xbca876b9	-0.020564424
70	0x3d12da1f	0.035852548
71	0x3d9cc692	0.07655062
72	0xbd8bacb4	-0.0682005
73	0x3d52cafc	0.051463112
74	0x3f421831	0.75818163
75	0x3ee19ac0	0.44063377
76	0x3dfd3279	0.123631425
77	0x3ef39229	0.4757245
78	0x3ed10548	0.40824342
79	0x3f4664ac	0.77497363
80	0x3f107809	0.5643316
81	0x3ee8c2b1	0.45461038
82	0x3d9c0858	0.07618779
83	0x3e9e159e	0.30875868
84	0xbf0bd0a5	-0.5461524
85	0x3f5611db	0.83620995
86	0xbde39359	-0.11112089
87	0xbe8416b6	-0.25798577
88	0xbd60635a	-0.05478225
89	0x3dd27d3a	0.10277791
90	0x3ee8c805	0.45465103
91	0x3c40876b	0.011751036
92	0x3f02668d	0.5093773
93	0x3e337643	0.17525582
94	0x3e1275b0	0.14302707
95	0xbe54a427	-0.20765744
96	0xbf3a05c3	-0.7266504
97	0xbc6811cf	-0.014164402
98	0xbec8281d	-0.39093104
99	0x3d8a46dd	0.06751797
100	0xbd5f8479	-0.054569695
101	0xbf2dfa80	-0.6796036
102	0x3ddbe2c5	0.10736612
103	0x3e82b673	0.25529823
104	0xbbf34c45	-0.0074248635
105	0x3eff56f6	0.49871033
106	0xbea39683	-0.3195077
107	0x3dac49ba	0.084125
108	0xbdaa15f3	-0.08304968
109	0xba61db10	-0.00086157117
110	0x3da837ff	0.082138054
111	0x3ecf2c7a	0.4046362
112	0xbe570f79	-0.21001996
113	0x3e831a69	0.25606087
114	0x3e7ff6e5	0.24996527
115	0x3bb34633	0.005471015
116	0x3f03d59e	0.5149783
117	0x3eb3e430	0.3513503
118	0xbec14952	-0.3775125
119	0x3f0f5b57	0.5599875
120	0x3e88b3e7	0.26699755
121	0x3f21d218	0.632112
122	0xbf7d8176	-0.99025667
123	0xbeadd509	-0.33951595
124	0x3dd6cb87	0.104880385
125	0x3f02531c	0.50908065
126	0x3e873cf9	0.26413706
127	0xbe758c3d	-0.23979278
128	0x3e58a9bb	0.21158497
129	0x3f014e7b	0.50510377
130	0x3eb2a1db	0.3488911
131	0xbee6c6a8	-0.45073438
132	0x3e2318e1	0.1592746
133	0xbf3764d3	-0.7163822
134	0xbf3b06dc	-0.7305734
135	0xbedadfe5	-0.42748943
136	0x3ea598d7	0.3234317
137	0xbead9ece	-0.3391022
138	0xbebac2b5	-0.36476675
139	0xbe3b4608	-0.18288434
140	0xbe0ec977	-0.1394404
141	0xbf06bbac	-0.52630115
142	0x3f3e0167	0.7422089
143	0xbe824b22	-0.25447947
144	0xbe47c87a	-0.1951007
145	0x3efb872a	0.4912656
146	0xbf0d4ac0	-0.55192184
147	0xbf078d6b	-0.5295016
148	0xbf1f5ee7	-0.62254184
149	0x3e9ff57c	0.31241977
150	0x3d6b244c	0.057407662
151	0x3e30b032	0.17254713
152	0x3ea9fb30	0.33199453
153	0xbe2e2692	-0.17006901
154	0xbc0af593	-0.008481401
155	0xbe9ca9fc	-0.30598438
156	0x3ebfe4a7	0.37479135
157	0xbf10b40f	-0.5652475
158	0xbe347f30	-0.17626643
159	0xbe8f3842	-0.2797261
160	0x3d8d18f7	0.06889527
161	0xbec05ada	-0.37569314
162	0x3f2e2a53	0.6803333
163	0x3d0f688d	0.035011817
164	0xbe9641b0	-0.2934699
165	0x3d1ae21e	0.0378133
166	0xbeeb806e	-0.45996422
167	0xbe2b4786	-0.16726503
168	0xbe973846	-0.2953512
169	0x3e89d986	0.2692377
170	0xbd3dc966	-0.046334647
171	0x3eac21a8	0.33619428
172	0x3cf26bb4	0.029592372
173	0x3ea76f91	0.32702306
174	0x3f12cd1d	0.5734423
175	0x3ce691a0	0.028145611
176	0xbe447bb5	-0.19187815
177	0xbead1c6d	-0.3381075
178	0xbd4c7401	-0.049915317
179	0xbe39393a	-0.18088236
180	0x3cf928b7	0.030414922
181	0xbe8f83b8	-0.2803018
182	0xbf43025f	-0.76175493
183	0x3e6f1f4b	0.23351781
184	0x3ece62de	0.40309805
185	0x3eb2e4f7	0.3494031
186	0xbee9cb3e	-0.45662874
187	0x3f154ffd	0.5832518
188	0xbf4341ff	-0.7627258
189	0xbea1a68a	-0.31572372
190	0x3e04fa08	0.12986004
191	0x3ebaea19	0.36506727
192	0xbf206096	-0.6264738
193	0x3eb472ea	0.35243922
194	0x3f18858c	0.59578776
195	0x3eb8f154	0.3612162
196	0x3ebefd0b	0.3730243
197	0x3ed4250c	0.41434515
198	0xbe99fea2	-0.30077082
199	0x3eddf4ac	0.43350732

arith.constant2 f4 [5]
0	0xbd27e035	-0.040985305
1	0x3e7aae0d	0.24480458
2	0xbecd3ea3	-0.4008685
3	0xbe26360f	-0.16231559
4	0x3e581ff6	0.21105942

arith.constant3 f4 [10]
0	0x3e3c81bf	0.18408869
1	0x3e73d897	0.23813091
2	0x3e9bbc82	0.30417258
3	0x3ea6c567	0.3257248
4	0xbe51ed02	-0.20500568
5	0x3e1b2f6c	0.15154809
6	0x3e73f946	0.23825559
7	0x3ea0cce0	0.31406307
8	0x3ca4bf23	0.020110672
9	0x3e3145ee	0.17311832

sequential_4_1/dense_12_1/BiasAdd/ReadVariableOp f4 [20]
0	0xbe1fe94a	-0.15616336
1	0xbd140108	-0.036133796
2	0xbe034f20	-0.12823153
3	0x3b2ba648	0.002619164
4	0xbd2d95b3	-0.042379092
5	0x3e3e6013	0.18591337
6	0x3e6baaee	0.23014423
7	0x3def0f0a	0.1167279
8	0x3e089e01	0.13341524
9	0xbeade280	-0.33961868
10	0xbe7198bb	-0.23593418
11	0x3d06f944	0.032952562
12	0xbec590fb	-0.38587174
13	0x3dc244da	0.09485789
14	0x3e4b53ea	0.1985623
15	0x3c0ec194	0.008713145
16	0x3e5bc42b	0.21461551
17	0x3e84d2c5	0.25942054
18	0x3ebb7619	0.3661354
19	0x3e6e9992	0.2330077

sequential_4_1/dense_12_1/MatMul f4 [20, 42]
0	0xbe8459e6	-0.25849837
1	0xbe12d47c	-0.14338869
2	0x3e88ca7f	0.26716992
3	0xbc9605e5	-0.018313358
4	0xbda2493f	-0.07924127
5	0x3e8360ee	0.2565989
6	0x3e9dc5c3	0.30814943
7	0x3e907250	0.28212214
8	0xbdcfbf89	-0.10143954
9	0x3e3f92ad	0.18708296
10	0xbda87f17	-0.082273655
11	0xbea22142	-0.31666
12	0xbe79baba	-0.24387637
13	0x3d7144a3	0.058903348
14	0x3e384a62	0.17997125
15	0xbec4550c	-0.38346136
16	0xbe642d5a	-0.22282925
17	0xbf0844a5	-0.53229743
18	0x3d8bb076	0.06820767
19	0xbe957b6a	-0.2919572
20	0x3d83fcde	0.06444715
21	0xbe20e626	-0.15712795
22	0xbe1af310	-0.15131783
23	0xbf073847	-0.5282025
24	0xbe860c81	-0.26181415
25	0xbeb1fe5c	-0.34764373
26	0xbe8e29e8	-0.27766347
27	0xbd1b0d2a	-0.03785435
28	0x3cf00367	0.029298497
29	0x3abb07a8	0.001426925
30	0x3d5c002d	0.053711105
31	0xbd373073	-0.04472394
32	0x3e2df85b	0.16989271
33	0xbebaa50c	-0.36454046
34	0xbdecd864	-0.11564711
35	0xbf08ebdf	-0.5348491
36	0x3e179b85	0.1480542
37	0xbd94befb	-0.07262989
38	0xbc1bab30	-0.0095012635
39	0xbe482744	-0.19546229
40	0xbdaa9c5c	-0.083306044
41	0xbe2ee28a	-0.17078605
42	0x3e21040e	0.15724203
43	0xbe3932df	-0.18085812
44	0xbdd817ff	-0.10551452
45	0x3e06f47a	0.13179198
46	0xbddceb28	-0.1078704
47	0xbca5b4bf	-0.020227788
48	0xbeaa4fa4	-0.33263886
49	0x3e5339dd	0.20627542
50	0xbe1b5cc5	-0.15172108
51	0x3da20797	0.07911604
52	0x3d8f4ada	0.06996699
53	0x3dd0a075	0.10186855
54	0x3d2fd0f2	0.042923875
55	0x3c44a2e8	0.0120017305
56	0x3e8b1709	0.27166012
57	0x3e1221e5	0.14270742
58	0x3b12c70b	0.002239647
59	0x3e24251b	0.1602978
60	0xbdf89e89	-0.12139613
61	0x3e7fcf0a	0.24981323
62	0xbdb0638e	-0.086127385
63	0x3d5124b9	0.051060412
64	0xbb1d7f98	-0.002403235
65	0x3e452698	0.19253004
66	0x3e9d4531	0.3071685
67	0x3e7bf78a	0.24606147
68	0x3e46552f	0.19368432
69	0xbd8660f3	-0.0656146
70	0xbe184649	-0.14870562
71	0x3d3baf9a	0.045821764
72	0x3e29021a	0.16504708
73	0xbe528486	-0.20558366
74	0x3e7f624b	0.2493984
75	0xbec7f033	-0.39050445
76	0xbe22b16c	-0.15887994
77	0xbe79e407	-0.24403392
78	0xbe2e7d42	-0.1703997
79	0xbd8b51d9	-0.068027206
80	0xbcd50365	-0.026002595
81	0xbf3e7dde	-0.7441081
82	0xbd309b23	-0.0431167
83	0xbf4c9d01	-0.7992707
84	0xbe0e1de1	-0.13878585
85	0xbde2278c	-0.11042699
86	0x3d38bbfe	0.04510116
87	0x3e14d6bc	0.1453504
88	0xbd5b01f6	-0.053468667
89	0x3e1cdf41	0.1531954
90	0x3e911bb9	0.28341463
91	0x3ec1c399	0.37844542
92	0x3ed9f84d	0.4257225
93	0x3ea731a4	0.3265506
94	0xbe8cedc4	-0.2752515
95	0xbd08f60a	-0.033437766
96	0xbcfee14d	-0.031113291
97	0xbd330a0a	-0.043710746
98	0x3d98fdcb	0.07470282
99	0xbe852dc2	-0.26011473
100	0xbe953397	-0.29140922
101	0xbf0177bd	-0.5057333
102	0x3deb7ad5	0.11498038
103	0xbe1c8240	-0.15284061
104	0x3b6cf6ef	0.0036157926
105	0xbd4bb977	-0.04973742
106	0xbe5461dc	-0.20740455
107	0xbc356427	-0.011071241
108	0xbd0cbd40	-0.03436017
109	0xbf028eb7	-0.50999016
110	0xbdccbb5c	-0.099966735
111	0xbe14aac7	-0.14518271
112	0x3cca47a2	0.02469236
113	0x3e37a1ad	0.17932768
114	0x3dd78ab3	0.10524502
115	0x3e2e7842	0.17038062
116	0xbc027659	-0.007962787
117	0x3eb72f52	0.3577829
118	0x3db76f5b	0.08956786
119	0x3d2fbeea	0.04290668
120	0x3d68d34a	0.056842126
121	0x3e833a5d	0.25630465
122	0xbd8a1ae2	-0.06743409
123	0x3eb24d3a	0.34824544
124	0x3c45f5f7	0.012082568
125	0x3ecce115	0.40015474
126	0xbde177e6	-0.11009197
127	0xbd42c640	-0.047552347
128	0x3ea78b1c	0.3272332
129	0xbe4e5e0a	-0.2015306
130	0x3e0d2c11	0.13786341
131	0x3e4481e6	0.19190177
132	0x3e849ab3	0.25899276
133	0x3e5ce318	0.21571004
134	0x3e36b9fa	0.17844382
135	0x3e6c36df	0.23067807
136	0x3e9fbaa5	0.31197086
137	0xbd60e3cb	-0.05490474
138	0x3f11ffac	0.5703075
139	0x3e126988	0.1429807
140	0x3ea20d9d	0.3165101
141	0xbe8567b5	-0.26055685
142	0x3e89897f	0.26862714
143	0xbe90558b	-0.28190264
144	0x3e7c80ee	0.24658558
145	0x3db8b9e0	0.09019828
146	0x3e2c08af	0.16800188
147	0x3d9038c4	0.07042077
148	0x3e57773c	0.21041578
149	0x3e775a20	0.24155474
150	0x3e8c162c	0.27360666
151	0x3e9371a0	0.28797626
152	0x3d5b1a2c	0.053491756
153	0x3e0b3ef5	0.13598235
154	0x3ee05127	0.43811914
155	0x3dbcbe8a	0.0921603
156	0x3f1dd0bd	0.61646634
157	0x3d61888c	0.055061862
158	0x3eeb9024	0.46008408
159	0xbdfb54e5	-0.12272052
160	0x3ed09104	0.40735638
161	0xbd405a75	-0.046961267
162	0x3ed596bd	0.41716567
163	0x3e128bff	0.14311217
164	0x3edffd92	0.43748146
165	0xbe9a8549	-0.30179814
166	0x3e5d3c8d	0.2160513
167	0xbf021cd5	-0.50825244
168	0xbe4d58f2	-0.20053461
169	0xbe879819	-0.2648323
170	0xbea6e79a	-0.32598573
171	0xbe30d2dd	-0.17267938
172	0xbdb8613b	-0.0900292
173	0x3eb143a2	0.34621912
174	0xbe41cf76	-0.18926796
175	0x3d9f6909	0.07783706
176	0x3d8eaece	0.06966935
177	0xbd8ad1ff	-0.06778335
178	0xbee2ad99	-0.4427307
179	0x3c847680	0.016169786
180	0xbeb5b98d	-0.35493127
181	0x3d2df424	0.04246916
182	0xbed62d10	-0.41831255
183	0xbd4967ef	-0.049171384
184	0xbdc37a12	-0.095447674
185	0x3c6951e3	0.014240715
186	0xbee8518d	-0.45374718
187	0xbda68c7a	-0.081322625
188	0xbb265b20	-0.0025383905
189	0x3e7f5066	0.24933013
190	0xbd6d6534	-0.057957843
191	0x3e8b1ebd	0.2717189
192	0x3e2ad733	0.16683654
193	0xbd749147	-0.05970886
194	0xbed580d0	-0.4169984
195	0xbdd70276	-0.10498516
196	0xbebb7268	-0.36610723
197	0x3eb2c121	0.3491297
198	0xbca814b8	-0.020517692
199	0x3d212bb3	0.039348315
200	0xbea0abe3	-0.3138114
201	0x3e41928a	0.18903556
202	0xbe91c56f	-0.28470942
203	0x3eaaae71	0.33336213
204	0xbd6386ef	-0.055548605
205	0x3ebd9d24	0.3703395
206	0xbd282d72	-0.041058965
207	0xbe5bab9b	-0.21452181
208	0x3e2e3dcf	0.17015766
209	0xbe263a60	-0.16233206
210	0x3da10d74	0.07863894
211	0x3e36eb64	0.17863232
212	0x3e22aa9c	0.15885395
213	0xbe382cb5	-0.17985804
214	0xbe35c93d	-0.17752548
215	0xbe52f4d1	-0.20601203
216	0xbde640ef	-0.11242854
217	0xbd9426bd	-0.07233951
218	0xbe1031e4	-0.14081532
219	0xbe854f2c	-0.26036966
220	0xbe3fca50	-0.1872952
221	0x3e22eff1	0.15911843
222	0x3d81a429	0.06330139
223	0x3dfaab9e	0.12239765
224	0xbe36acb4	-0.17839319
225	0xbbf6f62f	-0.0075366716
226	0x3e86c20f	0.2631993
227	0xbd4d7792	-0.05016286
228	0xbd444c37	-0.047924247
229	0xbdd2681e	-0.10273765
230	0xbdb7e5f6	-0.089794084
231	0xbeca2a61	-0.39485458
232	0xbe29b3fd	-0.16572566
233	0xbebc69b8	-0.36799407
234	0x3da37d32	0.079828635
235	0xbf0ae7ff	-0.5426025
236	0xbd825151	-0.06363166
237	0xbc416be2	-0.011805506
238	0x3d3cf236	0.046129428
239	0xbe84f982	-0.2597161
240	0x3dd26630	0.10273397
241	0xbe618a1e	-0.22025344
242	0xbdfbb2bb	-0.122899495
243	0xbdd0aa26	-0.10188703
244	0x3e43f57c	0.19136614
245	0xbcb7e70b	-0.022449037
246	0xbd963a41	-0.0733533
247	0x3e950efe	0.29113
248	0x3e7443ee	0.23854038
249	0xbd1b3f02	-0.037901886
250	0xbdecb3bc	-0.11557719
251	0x3e8499df	0.25898644
252	0x3e30d030	0.17266917
253	0x3ac1ce00	0.0014786124
254	0x3db0f47f	0.08640384
255	0x3f120540	0.5703926
