model/keypoint_classifier/keypoint_classifier.tflite (tflite, 6644 bytes, 6 tensors)

arith.constant f4 [6, 10]
00000000: 4439 88bf 5b2b e6bd 796c 40bf d135 f13e
00000010: e0b4 5e3f 9def 83bf 5164 6fbe f229 aabe
00000020: 36a8 973f cd84 6abe 1ef2 28bf a11a 823f
00000030: af5f b33e af0f acbe 466a 56bf c4fd 223f
00000040: 2cef 30bf ec37 42be f6fa 85be 405a 463f
00000050: 5c2c c0bd f430 9b3e 34cc adbf 7fe2 91be
00000060: 2385 c63e e0d1 953d 93b5 43bf cbf9 9f3f
00000070: 3db4 04be 87c0 09bf ddc2 83bd 57d8 63bf
00000080: 968d d3bd 7203 823e 7323 c7be 5cd5 84be
00000090: 9aef 5b3f 19eb c73e 9985 5c3e 73e6 cb3e
000000a0: b95d abbe b1af 39bf a709 c53e e1cc a7bf
000000b0: 8ce5 303f c1c5 fe3e 5e67 cb3e b04c be3d
000000c0: 8470 75bf 118e 56bf b2b8 0d3f 1db9 10bf
000000d0: efd7 bdbe 5ec9 64bf 51a6 69be 92ec 133f
000000e0: 93da e2bd 69af 243f 0586 12be bc39 ba3b
-1.0642476 -0.11238738 -0.75165516 0.4711137 0.86994743 -1.0307499 -0.23378111 -0.33235127
1.1848209 -0.22902222 -0.6599444 1.0164376 0.35033938 -0.33605716 -0.8375591 0.63668466
-0.6911495 -0.18966645 -0.2616803 0.7748146 -0.09383461 0.30310786 -1.3577943 -0.28493115
0.3877345 0.07315421 -0.76448935 1.2498106 -0.1295938 -0.538094 -0.064336516 -0.89001983
-0.1032974 0.25393254 -0.38894233 -0.2594403 0.8591248 0.39046553 0.21535338 0.39824256
-0.33469942 -0.7253371 0.38483927 -1.3109399 0.6910026 0.4976025 0.397273 0.09291971
-0.9587481 -0.83810526 0.5535995 -0.5653246 -0.37078807 -0.8936976 -0.22817351 0.5778285
-0.11076846 0.64330155 -0.14308937 0.005683152

arith.constant1 f4 [10, 20]
00000000: 9687 6abe 44df 1cbe 4fa9 aabc ee53 2d3f
00000010: 1859 413f 6891 85bd efa8 673e d89c 12bf
00000020: ec44 933e 32a9 b5bc f63f 663f c6a7 b33e
00000030: 2076 4a3f 5fdc 733e 7502 04bf 2ab2 f6bd
00000040: f526 adbe 199b 97be 7f18 cfbe 1f92 813e
00000050: a90a 02bf 8d69 9a3e d1b0 573d f351 71be
00000060: 65c9 fdbd 5199 e1be 7c18 ca3e 1975 373d
00000070: a025 183e ceee d1bd 9ed6 7e3e 1e19 043d
00000080: b65d a3be 6bd4 34be ed4d 36be 9786 283f
00000090: 9a20 143f aa6f 003f 343a 0bbf 8e9e 173f
000000a0: 05f8 b5be cb3d 143e bc0f f3bd acb6 5b3d
000000b0: 6bb5 263f 46a4 e33e 20a9 61ba 0acd 203f
000000c0: 1915 c0bd a239 babe f816 383c 3916 153d
000000d0: c078 863e 40b4 28bf 4a9b a4be 2c6e ec3d
000000e0: 7470 8d3e f827 9b3e 47c1 493e 47f0 63be
000000f0: 039f 2b3f 5b24 1f3e 6af3 28bf 1a5b 3f3e
00000100: 703b a3bd 9c54 0d3e c21b 603f 2756 46be
00000110: 51f5 13bf 726e 363f 094a b4be f716 3f3e
00000120: c476 ebbc 47ac 633f 5239 6d3f 6140 9dbe
00000130: 3d01 e9bd 3ebe a2be f0c1 83bd a6ac 423f
00000140: bf4b 793e 5fab 5ebe e264 1b3f ce81 2b3e
00000150: aa78 95be eba0 133f 84e9 113e 4ba1 97bd
00000160: 334a 13be 40b3 1a3f a8bd 1a3e d140 a63e
00000170: d2de 09be 04fe e8bc 3834 083f 3f79 19bf
00000180: 46e2 aebe 1604 dcbe f936 033f 1c5c 853d
00000190: 5b94 afbe 048b f03e df71 0e3f 60db 4c3e
000001a0: fe44 fb3e ee57 8d3d 1ce7 2f3e b85c 413e
000001b0: 9a2b bc3e 931b 4ebd 4f0a 7f3f 5aa3 833e
000001c0: 5e02 7f3d 1c09 e2be 253a 08bf 3159 123f
000001d0: dd26 b83e 363f 653d 155c 433d 889c ac3c
000001e0: 53a6 cd3e b14d 79bd fe85 a9be 0475 1b3f
000001f0: bd9d 693f 2f08 073f 8bc4 93be b9ce 83be
00000200: a1a6 dbbe 3d9b 98be 179e 66be 8ab7 ac3e
00000210: 07df c23e d35b ce3e 7942 2fbf 97ea f53d
00000220: 4b56 f7bd a5ae 76bd f077 ff3e f4c7 a4bc
00000230: 4922 163f 911e 0bbf 2120 423f 00ca e43e
00000240: c9db f6be d451 37bd 8587 3b3e 87e8 9bbe
00000250: dc1b 743f c5d2 ebbe 50d4 f23e 3e79 c73e
00000260: 10f2 383e ce10 f33e bbf0 51bf c0f9 1ebf
00000270: fdc4 87be f7d9 02bf a097 4fbf 5105 393e
00000280: e806 093f a4b6 8cbe c94d 39be 828c abbe
00000290: d6ed ddbd d938 a83e 3782 db3e f11d acbe
000002a0: 2132 07bf 3d16 623f bae3 1bbe ceb5 923d
000002b0: c1a5 f4bc 35c7 9e3e 5ec8 593e 10b1 743e
000002c0: c942 7d3e 54e8 adbe e7a1 933e 9bc4 df3e
000002d0: 2c98 92bd da8e 383f 8698 3ebe f1df d33e
000002e0: c92d 4e3d 2494 eb3d ad55 123f 294b 0d3f
000002f0: ffb9 d4bd aa99 96be d514 213c c04e 3fbd
00000300: 87da 65be 9e78 0abe 46d4 cfbd 4f79 043f
00000310: c5ee b93e b9f8 3a3f 1d1d 34bd d588 c03e
-0.22903284 -0.15319544 -0.020832686 0.6770619 0.7552657 -0.06521875 0.22623037 -0.57270575
0.2876352 -0.022175405 0.89941347 0.35088938 0.79086494 0.23814534 -0.5156625 -0.12045701
-0.33818784 -0.29610518 -0.40448377 0.25306794 -0.50797516 0.30158654 0.05265886 -0.23566417
-0.123919286 -0.44062284 0.39471805 0.044789407 0.14858103 -0.102506265 0.24886557 0.032250516
-0.31907433 -0.17659156 -0.17803164 0.6583037 0.57862246 0.50170386 -0.54385686 0.5922631
-0.35540786 0.14476697 -0.118682355 0.053641006 0.6512057 0.44461268 -0.00086082704 0.62812865
-0.09379024 -0.36372095 0.011235945 0.036398146 0.26264 -0.6590004 -0.32149726 0.11544451
0.27624857 0.3030393 0.19702636 -0.22259627 0.6703951 0.15541212 -0.6599642 0.18687096
-0.07970321 0.13801807 0.87542355 -0.19368802 -0.577962 0.71262276 -0.35212734 0.18661104
-0.028743155 0.8893475 0.9266559 -0.3071318 -0.11377189 -0.31785768 -0.06433475 0.7604469
0.24345301 -0.2174506 0.6070081 0.16748735 -0.29193622 0.57667416 0.14249235 -0.07403811
-0.14383774 0.60429764 0.1511141 0.32471326 -0.13463905 -0.028441437 0.5320468 -0.5995063
-0.34157008 -0.42971867 0.51255757 0.06511709 -0.34292874 0.4698106 0.55642503 0.2000556
0.49076074 0.06901537 0.17178005 0.18883026 0.36752015 -0.050319266 0.99625105 0.25710565
0.062258117 -0.44147575 -0.5321372 0.57167345 0.3596715 0.055968486 0.04769524 0.021070734
0.40165958 -0.060865108 -0.3311004 0.60725427 0.91256315 0.5274686 -0.28860888 -0.25743654
-0.42900565 -0.29805937 -0.22521244 0.3373378 0.3806078 0.4030443 -0.68460804 0.12007635
-0.12077006 -0.060225148 0.49896193 -0.020114876 0.58646065 -0.54343516 0.75830275 0.44685364
-0.48214558 -0.04475577 0.18313415 -0.30450842 0.9535501 -0.46059242 0.47427607 0.38959688
0.1806109 0.47473758 -0.8200795 -0.6209984 -0.26517478 -0.5111384 -0.81090736 0.18068434
0.53526163 -0.27483094 -0.18096079 -0.33505636 -0.10836379 0.3285587 0.42872784 -0.33616593
-0.52810866 0.8831518 -0.1522359 0.07163583 -0.029864194 0.31011358 0.2126784 0.23895669
0.24732508 -0.33966315 0.2883446 0.43704686 -0.07157931 0.72092974 -0.1861287 0.4138179
0.050336633 0.11502865 0.5716198 0.5519281 -0.103870384 -0.2941411 0.009831627 -0.04670596
-0.22446643 -0.13522574 -0.1014791 0.517476 0.3631498 0.7303577 -0.043973077 0.37604395

arith.constant2 f4 [6]
00000000: 43ad d5be 7e46 f5be a841 a83e 107e 803b
00000010: b24a 023f 2472 6bbe
-0.4173375 -0.47905344 0.32862592 0.003921278 0.50895226 -0.2299276

sequential_1/dense_1_2/BiasAdd/ReadVariableOp f4 [10]
00000000: c4f4 6c3e 593c 663e 9ed0 ce3e 8baa 6f3e
00000010: c014 f33e 7f15 803e 36ae d93e cf98 f53e
00000020: 56c1 9bbd f7dc a23d
0.23140246 0.22483958 0.40393537 0.234049 0.47476768 0.250164 0.42515725 0.47968146
-0.07605235 0.07952302

sequential_1/dense_1/BiasAdd/ReadVariableOp f4 [20]
00000000: efc0 263e 642e a13e 5888 a7be 71a7 4dbe
00000010: fdea 5a3c 7f26 053f f37c 183e f689 8e3e
00000020: abb9 02bf bc82 f73d efd1 4bbe ed82 28be
00000030: aa0a 79be 4511 963d e8bc d53e a1c6 9e3e
00000040: 5a31 903e 583e 843e 7b97 d43e f0e3 d7bc
0.16284536 0.31480706 -0.3272121 -0.20083405 0.01336169 0.52011865 0.14891414 0.2783963
-0.51064557 0.120854825 -0.19904302 -0.16456194 -0.24320474 0.07327513 0.41745687 0.31010917
0.28162652 0.25828815 0.4152182 -0.026353806

sequential_1/dense_1/MatMul f4 [20, 42]
00000000: 0a79 023e a1d7 0cbe 943a 6abe 269a 26bf
00000010: 2078 513e 89cb 13bd 46c8 643e ae40 9bbd
00000020: f136 d63c bec5 8d3d 5357 9bbb 5684 febd
00000030: bf99 d9bc 42bc a1bd dc81 73be e2bd bfbe
00000040: 5e78 e6be 82f6 a0be 68a1 a6bd dcb0 f0be
00000050: 788f c3bd 23f4 b13d 48c5 fe3d d2e8 b73d
00000060: 6ae7 ca3d 12f7 863d 2240 9c3b e991 48be
00000070: fb40 203e bf2c 3a3e b5c5 5f3e 980a d83e
00000080: 561a debd 3bd7 fb3e 7321 58bd e153 293e
00000090: fadb a33d 7608 313e 007e a8bc 7103 333e
000000a0: e3f0 303c 78dd f63e 60dd a7bc 4c7d 573e
000000b0: 2c20 2ebe 163d 273f 77b3 64be 0766 193f
000000c0: d11c 093d 8fae 8f3e 475a 943e 23ac 223f
000000d0: 3cc6 b9bd ad7b 843e 1117 4c3e 9dab 6a3e
000000e0: 2550 723e daea e33e b2d9 d3bd 04e4 073f
000000f0: e245 353d 2307 303e 9859 a03d 6ec7 1c3e
00000100: 31e0 963d e248 703e 9633 513e 77ad bd3e
00000110: 9f3f 8cbe 6a9c af3d d0aa a4bd a04a aabe
00000120: a077 2dbe cbf4 a3bd c10c 05bd 6b6d 8d3e
00000130: 652e 363e 614a 91be 89da 23bd c64c eebd
00000140: 08f6 92be d746 3dbd e42f 13bd f47e 19bd
00000150: 9890 403e 988d 52be dc7f db3e 786c 6c3c
00000160: 944c db3e f264 0bbe ff4c 6f3e f3f1 bbbe
00000170: 4fa3 8a3e 0100 9f3c 6869 4a3e 54ed 183d
00000180: e581 18be 98fa 943d f318 51be ad82 ac3d
00000190: e066 313b 29b8 d53d a4b9 6dbd c19a 383e
000001a0: 716d b1bc ea8c f23d b243 a03e bfbe 343e
000001b0: aec2 d43d 05ff 023e 3a60 f03c ddb1 ee3b
000001c0: 4364 49bd e9cc 0ebe 93ab 20be ad76 8c3c
000001d0: 9f39 8d3c de91 e53d 1f4f 08be 13ac 70be
000001e0: 2524 4cbe 3a0a 8abd 9ba7 f1bd 478e 63bf
000001f0: 0c68 87bd b17d d0be 3cb5 e83d 78ea 2a3e
00000200: 6265 613d eac8 d13e a103 843d 1bca c53e
00000210: 2d62 a93e 84c8 3c3e 568f ab3e 9b7b 673e
00000220: 56c0 4cbd a1bb 4abe 3e5b 51bc 9d54 cf3d
00000230: 8c22 babd de1c c7be a37d 13bb ccda 08bf
00000240: 02f1 a43c 8c56 9f3d bb04 bebc c80b 86be
00000250: cdb5 7a3d 86a6 fdbe 9503 18be 2a10 92be
00000260: ffe3 27be d67f 52be 5562 8fbc 40de df3c
00000270: cdc4 9cbd d920 023d 943d bebd 0fc0 fc3d
00000280: 0086 92bc 5a13 b93b 256f 1c3d fffc 843e
00000290: 8830 233e 50a9 c93e cfa8 00be 1625 0e3f
000002a0: ecf3 7a3e 74d3 743e 50c9 f4bd 766b 2c3e
000002b0: 8d27 6f3d e444 273e 76c6 a13d 862f 1e3e
000002c0: 81ff 18be cc33 ea3d 2d14 9e3c 0589 1d3e
000002d0: 40cb 2d3d 6200 ad3d 3ab8 cabd 1370 8d3d
000002e0: e24c 1d3d 4926 953d acbd c03d a58f 723d
000002f0: 3c58 443d 0036 833d 0a77 0dbe 855c 713c
00000300: dd0f 59bd 9a50 9abf ae44 b1bd f1a3 d33d
00000310: 5bb4 bc3c efcf 723d ca8c 523d fa8c 233d
00000320: 025d 863c 342c bbbc ec4c 7dbc 179c d23d
00000330: de7f e63c f612 6c3d 1ded 893d b8c5 b53d
00000340: e816 5ebc be75 c83d 90ce 813e 8e19 24be
00000350: 8e60 f73c 3929 73be 8fcd 58bd 9638 aebe
00000360: 0f6a fbbd 0dfe 95be 7ddb 4fbe 3301 f9bd
00000370: 0276 103e 92b2 22be 91b2 473c f7c4 a0bc
00000380: 81f8 223e 4b0e bb3d 9fda 083e 5409 c83e
00000390: 5538 0dbd 24c9 bfbd 15ba af3d 05c7 03be
000003a0: 4471 80be 1732 09bf 117b 1f3d 5d67 b7be
000003b0: 6795 46be 5225 b2bc edb5 d9bd 9a88 b53c
000003c0: 6d3c 293e 8130 e53e 81f4 533c 312c f43e
000003d0: bb11 003e 0d72 81bd a910 03bd 6677 cf3d
000003e0: f6cb 98bd d76b d73e e2b4 ab3d 8ad5 2a3f
000003f0: 88d5 96bd 148d 9c3e 3898 84be d592 a5be
0.12741485 -0.13754131 -0.22873908 -0.6507896 0.2045598 -0.036082778 0.22342023 -0.07580696
0.026149245 0.06922482 -0.0047406345 -0.12427585 -0.02656257 -0.078972355 -0.23780006 -0.37449557
-0.45013708 -0.3143807 -0.081362545 -0.47009933 -0.09548849 0.086891435 0.12439972 0.08979954
0.0990742 0.06590094 0.0047683874 -0.1958691 0.15649788 0.18181132 0.21852763 0.42195582
-0.10844867 0.49187645 -0.052766275 0.16535904 0.080009416 0.17288384 -0.020567894 0.17481782
0.010799619 0.48215842 -0.020491302 0.2104389 -0.1700446 0.65327585 -0.22334085 0.59921306
0.033474747 0.28062865 0.28975126 0.6354391 -0.09071013 0.25875607 0.19930674 0.22917028
0.23663385 0.44515115 -0.103442565 0.530823 0.0442561 0.17190222 0.07829589 0.15310451
0.0736698 0.23465303 0.20429835 0.37046406 -0.2739229 0.085747555 -0.080403924 -0.3326006
-0.16940165 -0.08005675 -0.032482866 0.27622542 0.17791136 -0.2837706 -0.040003333 -0.11635737
-0.28703332 -0.046210136 -0.035934344 -0.037474588 0.18805158 -0.20561826 0.42870986 0.014430158
0.42831862 -0.13612726 0.23369215 -0.3670803 0.2707772 0.019409182 0.19766772 0.03733571
-0.14893301 0.072743595 -0.20419674 0.08423362 0.0027069375 0.104355164 -0.05803837 0.18027784
-0.021658631 0.118432835 0.31301647 0.17650889 0.10388695 0.12792595 0.02934276 0.0072843865
-0.049167883 -0.13945355 -0.1569045 0.017146433 0.01723939 0.112094626 -0.13311432 -0.23503141
-0.19935663 -0.06740232 -0.11799546 -0.88888973 -0.06611642 -0.40720895 0.11362693 0.16691005
0.055028327 0.40973598 0.06446005 0.38630757 0.33082715 0.18435866 0.33507794 0.22605745
-0.049988113 -0.19798137 -0.0127781015 0.101235606 -0.090886205 -0.3888921 -0.0022505305 -0.5345886
0.020134453 0.077801794 -0.023195615 -0.26180863 0.061208535 -0.4954111 -0.14845116 -0.28527957
-0.16395567 -0.20556578 -0.017502943 0.027327657 -0.07654724 0.031769607 -0.09289089 0.1234132
-0.017886162 0.005648059 0.038191933 0.2597427 0.15936482 0.39386988 -0.12564395 0.5552534
0.24507111 0.23908788 -0.1195246 0.16837868 0.058387328 0.16334873 0.078991815 0.15447816
-0.14941217 0.11435661 0.01929673 0.153843 0.042430162 0.08447339 -0.0989842 0.06906142
0.0384034 0.07282693 0.09411177 0.05921902 0.04793571 0.06406784 -0.13814941 0.014731531
-0.052993644 -1.2055848 -0.08655678 0.10334004 0.023035219 0.059280332 0.0514038 0.039929368
0.016401771 -0.022848226 -0.015460234 0.10283678 0.028137144 0.05763527 0.06734679 0.088756025
-0.013555266 0.097880825 0.25352907 -0.16025373 0.030197408 -0.23746194 -0.05293041 -0.34027547
-0.122760884 -0.29295388 -0.20298572 -0.12158432 0.14107516 -0.15888432 0.01218857 -0.01962517
0.15915109 0.091335855 0.13364647 0.39069617 -0.03447755 -0.093645364 0.08580414 -0.12868889
-0.25086415 -0.53592056 0.038935725 -0.35821047 -0.1939293 -0.021746311 -0.10630403 0.022159863
0.16526957 0.44763568 0.012936712 0.47689965 0.12506764 -0.063205816 -0.03199831 0.10130195
-0.074607775 0.42074463 0.0838411 0.66732085 -0.073649466 0.30576384 -0.25897384 -0.32338586
